weight.npy (npy, 188528 bytes, 1 tensors)

array f8 [3, 10, 785]
00000000: 9941 6a93 47e4 f4bf 0000 0000 0000 0000
00000010: 0000 0000 0000 0000 0000 0000 0000 0000
00000020: 0000 0000 0000 0000 0000 0000 0000 0000
00000030: 0000 0000 0000 0000 0000 0000 0000 0000
00000040: 0000 0000 0000 0000 0000 0000 0000 0000
00000050: 0000 0000 0000 0000 0000 0000 0000 0000
00000060: 0000 0000 0000 0000 0000 0000 0000 0000
00000070: 0000 0000 0000 0000 0000 0000 0000 0000
00000080: 0000 0000 0000 0000 0000 0000 0000 0000
00000090: 0000 0000 0000 0000 0000 0000 0000 0000
000000a0: 0000 0000 0000 0000 0000 0000 0000 0000
000000b0: 0000 0000 0000 0000 0000 0000 0000 0000
000000c0: 0000 0000 0000 0000 0000 0000 0000 0000
000000d0: 0000 0000 0000 0000 0000 0000 0000 0000
000000e0: 0000 0000 0000 0000 0000 0000 0000 0000
000000f0: 0000 0000 0000 0000 0000 0000 0000 0000
00000100: 0000 0000 0000 0000 0000 0000 0000 0000
00000110: 0000 0000 0000 0000 0000 0000 0000 0000
00000120: 0000 0000 0000 0000 0000 0000 0000 0000
00000130: 0000 0000 0000 0000 9472 3822 e290 0cbf
00000140: 218c b80d 7c23 36bf 0000 0000 0000 0000
00000150: c909 64f9 2fd7 76bf 66b8 1c3a 43c0 8ebf
00000160: ef1d 84da 85d0 88bf 3400 2e58 f663 93bf
00000170: 48fb 8f59 6927 56bf 053f 7a88 3dc1 1dbf
00000180: 0000 0000 0000 0000 0000 0000 0000 0000
00000190: 0000 0000 0000 0000 0000 0000 0000 0000
000001a0: 0000 0000 0000 0000 0000 0000 0000 0000
000001b0: 0000 0000 0000 0000 0000 0000 0000 0000
000001c0: 0000 0000 0000 0000 0000 0000 0000 0000
000001d0: 0000 0000 0000 0000 0000 0000 0000 0000
000001e0: 0000 0000 0000 0000 0000 0000 0000 0000
000001f0: 0000 0000 0000 0000 0000 0000 0000 0000
00000200: 0000 0000 0000 0000 0000 0000 0000 0000
00000210: 0000 0000 0000 0000 2523 82b2 5aff 40bf
00000220: 21c2 ac87 6e50 59bf 659a 1bbb fd82 adbf
00000230: e36e f80e 1e2d b5bf e0b3 9c82 dd4e b8bf
00000240: 77f3 c333 9355 b6bf 8099 9747 ea44 bcbf
00000250: 2320 3430 adf2 b7bf 19bf 3d09 e28e b2bf
00000260: a43e d264 b469 b0bf 8c44 29dc 3b59 9dbf
00000270: 68de 00b9 be41 87bf f62b 0c76 2374 78bf
00000280: de64 e801 f92b 30bf 0000 0000 0000 0000
00000290: 0000 0000 0000 0000 0000 0000 0000 0000
000002a0: 0000 0000 0000 0000 0000 0000 0000 0000
000002b0: 0000 0000 0000 0000 0000 0000 0000 0000
000002c0: 0000 0000 0000 0000 0000 0000 0000 0000
000002d0: 0000 0000 0000 0000 a330 962e a2d3 0ebf
000002e0: f3ae cedb ed7d 86bf 4e05 1fc9 b954 62bf
000002f0: c0a2 5a6c edae 6ebf 568a 364f 64b6 7cbf
00000300: 3f17 a8ba d747 d0bf de28 84d9 8d6e d8bf
00000310: ecbf 1cf7 4ab5 cabf 71c8 659a 8998 d1bf
00000320: b544 1ab7 cb39 cfbf 345a c3de 3b0f c6bf
00000330: 2484 2ff2 1ca8 c2bf 87e6 025c 4807 b8bf
00000340: 6fe1 f859 9bda bfbf fdda 04f9 f5d3 c4bf
00000350: 9746 28be 0dad c6bf 64bc 1e6f 66fd 80bf
00000360: 5054 49c0 f403 2abf 0000 0000 0000 0000
00000370: 0000 0000 0000 0000 0000 0000 0000 0000
00000380: 0000 0000 0000 0000 0000 0000 0000 0000
00000390: 0000 0000 0000 0000 0000 0000 0000 0000
000003a0: 0000 0000 0000 0000 23a6 b39f 6210 17bf
000003b0: 93a5 7e05 32d7 5ebf 075c 807d 84d1 90bf
000003c0: a44f bb99 76fd a5bf 0f5d 9ec8 95ff 89bf
000003d0: 1ed6 b7fd ad37 bfbf 7d2e 8f98 95bf d7bf
000003e0: b8f5 4f78 5073 d1bf c70c 9930 333f c1bf
000003f0: b310 aade a6c1 b2bf ccb2 9585 7a27 88bf
00000400: 66f0 5d26 b18d cdbf 6556 3e5f 07d7 d9bf
00000410: c467 0d06 fca6 b7bf 57c9 0226 86c1 a13f
00000420: a6cf 7844 fe7a c73f 90cc 4444 b9fe be3f
00000430: 4077 a5d5 4c77 b0bf fb7c d01d d7a7 713f
00000440: a14a 79f9 2441 963f d3cb 80ff 96c9 65bf
00000450: 0000 0000 0000 0000 0000 0000 0000 0000
00000460: 0000 0000 0000 0000 0000 0000 0000 0000
00000470: 0000 0000 0000 0000 0000 0000 0000 0000
00000480: eabd 97c8 d654 07bf 3c37 c093 7da3 bcbf
00000490: 6820 54e8 390e c8bf 21c3 2d78 eb29 d1bf
000004a0: 26f3 0b40 f25c d2bf 2b92 5cbe 4a58 d0bf
000004b0: b599 d151 338e d3bf 2259 6961 5b15 e0bf
000004c0: dded 7062 f386 dbbf 5446 ade8 e8ac 9fbf
000004d0: d38d 5062 00bc d63f 6e8c 6f55 c291 d43f
000004e0: 440f 2d6b 298f d73f 42f7 1544 d86c c4bf
000004f0: dc33 9434 9e21 c3bf 926f 38e3 5c6a c43f
00000500: 6357 7aa6 0a4d d13f 89df 36c5 e769 c53f
00000510: f4a8 1a4f cf6d a3bf db37 2a90 d954 b8bf
00000520: f943 f20b 7b37 95bf b825 7309 88b2 b0bf
00000530: bd5a 40f8 71c6 84bf 0bee 4c8b 2480 53bf
00000540: 0000 0000 0000 0000 0000 0000 0000 0000
00000550: 0000 0000 0000 0000 0000 0000 0000 0000
00000560: a2ff 0576 38eb 4abf a90d 62c1 03f4 c7bf
00000570: 7ad0 cc6b 3f1d cdbf 4faf 371e 6f35 d5bf
00000580: d2fe 0731 1f5d d1bf 4013 4aac e2e3 cebf
00000590: eb1e f646 8fdb c5bf 9cb1 1cdf 3590 d6bf
000005a0: 14df e2fa 1b3c ccbf 1e4f 40c7 f916 d83f
000005b0: 7f66 1272 5f95 d33f 2d59 1982 5b22 b23f
000005c0: c82a c44f beab bc3f 69f1 bd41 9a17 cc3f
000005d0: 1480 8dd0 85a0 a93f a38e c4ef 59e3 d13f
000005e0: bc3f 5173 8a95 d43f 1eeb b252 44b0 a83f
000005f0: 90ac 36ea 98b5 b4bf 6e7d 7e75 f830 c9bf
00000600: 9ed4 0941 c9b2 c2bf 1f4e b69d f954 c0bf
00000610: 8448 4454 494c 9abf 8a17 978a e37a 76bf
00000620: 34c5 df78 6fcb 59bf 0000 0000 0000 0000
00000630: 0000 0000 0000 0000 25fb 9de6 6692 78bf
00000640: e12f c537 67dc 8ebf 7f02 c696 c957 bebf
00000650: e794 b661 6545 c4bf 744b 2c01 6d18 cdbf
00000660: 1f61 80d9 a2cf cabf 71ea 9a07 0941 c3bf
00000670: 08b1 cf16 3f43 8fbf ac97 22c6 b2bb d6bf
00000680: 29b7 0cca 6e93 813f 4ba6 36a8 c1e4 cd3f
00000690: 7f6a 99d7 9667 aa3f d813 8cd4 dadd b2bf
000006a0: a877 d491 957f dc3f d33f f366 0b77 d53f
000006b0: 116c 499a 6050 cf3f f325 63a3 6132 d63f
000006c0: b253 2cae 6ef2 d53f aca5 f6d1 4496 a33f
000006d0: 8b06 bff9 7d27 abbf 38ae c610 f23d ccbf
000006e0: 3fef 50c4 cc11 c9bf c20a 2ae9 6d1e c4bf
000006f0: 452f 0807 d9e3 b9bf 917a 0dd9 054b a3bf
00000700: 0fb9 36d8 adfc 55bf 0000 0000 0000 0000
00000710: 0000 0000 0000 0000 b41f c64f 3385 73bf
00000720: cebb ad50 627b 93bf 8a52 1cf5 2d8b a2bf
00000730: 0d40 4fc2 46ba b5bf 7677 c33f fbae c2bf
00000740: 0607 b4eb b1cd d0bf eebb 78f6 ce42 943f
00000750: 0467 b1e2 f7c1 d5bf fd49 7300 0390 c3bf
00000760: 0d9e 924a 4289 c13f 0d18 1bde 8ceb bfbf
00000770: 0043 bf2c bbe4 d2bf 8091 363e 4d01 a6bf
00000780: 2ce4 363f 351e ca3f 6afd aee5 f236 c43f
00000790: ebee ab29 c39c c93f b958 0882 047e d83f
000007a0: 3e8d 4d41 ffe3 d13f d332 7adf ae03 843f
000007b0: 34ff 8eec d62b c53f 34ab 17d4 abd7 af3f
000007c0: 9ef4 94a5 7a14 acbf e0f0 d8b1 1f03 aabf
000007d0: 613c afd6 200c bdbf 37db 89d4 d1e3 89bf
000007e0: 0000 0000 0000 0000 0000 0000 0000 0000
000007f0: 2fc0 e970 1081 2dbf 0570 5d2c d17f 5bbf
-1.3057323225403705 0.0 0.0 0.0 0.0 0.0 0.0 0.0
0.0 0.0 0.0 0.0 0.0 0.0 0.0 0.0
0.0 0.0 0.0 0.0 0.0 0.0 0.0 0.0
0.0 0.0 0.0 0.0 0.0 0.0 0.0 0.0
0.0 0.0 0.0 0.0 0.0 0.0 0.0 -5.448522668081049e-05
-0.00033780840542102687 0.0 -0.005576312445784778 -0.015015149317687281 -0.012116475802499386 -0.01893601334768409 -0.0013521698767815105 -0.00011350572651224959
0.0 0.0 0.0 0.0 0.0 0.0 0.0 0.0
0.0 0.0 0.0 0.0 0.0 0.0 0.0 0.0
0.0 0.0 0.0 -0.0005187218530561018 -0.001545055331643515 -0.05764000805884421 -0.08271968713273341 -0.09495338858387425
-0.08724327100567374 -0.11042656181198218 -0.09354669977994994 -0.07249272084822812 -0.06411292516190287 -0.028660712540219666 -0.01135586740575363 -0.00597013332368145
-0.0002467616012907357 0.0 0.0 0.0 0.0 0.0 0.0 0.0
0.0 0.0 0.0 -5.8797251607152207e-05 -0.010982378263939085 -0.0022376659989908126 -0.0037455212758071565 -0.007009879907317348
-0.2543849299257665 -0.38174768678494597 -0.2086576181986851 -0.2749351508892977 -0.2439512867027013 -0.17233990075210814 -0.14575540376157037 -0.09386112448091853
-0.12442942568384806 -0.16271853121880744 -0.1771561792852949 -0.008295822397341897 -0.0001984821575599393 0.0 0.0 0.0
0.0 0.0 0.0 0.0 0.0 -8.798219635122082e-05 -0.0018823612681252197 -0.016424245986936394
-0.04294939638717146 -0.012694521126646067 -0.12194335407533471 -0.3710683812939591 -0.2726632285046793 -0.13474120972578005 -0.07326739250317153 -0.011794049455340704
-0.23088659642587855 -0.4037493162262307 -0.09239173076403434 0.03467959608078058 0.1834409555755176 0.12107427517621461 -0.06432037559485781 0.004310455607110737
0.02173288128535467 -0.0026596020871010122 0.0 0.0 0.0 0.0 0.0 0.0
-4.4501118349301306e-05 -0.11186966759870826 -0.18793414920969842 -0.2681835816975298 -0.28692299131926047 -0.2553889140129139 -0.3055542277346846 -0.5026070501869848
-0.43011173833266786 -0.030933036042659914 0.35522470093766606 0.3213964304288258 0.36811290232093463 -0.15957167934896616 -0.14946343962983988 0.15949593634365705
0.27032724626166366 0.16729447488409857 -0.03794715729357448 -0.09504470605517616 -0.02071945438780529 -0.06522417288501614 -0.010144129169970534 -0.0011902195812599793
0.0 0.0 0.0 0.0 -0.0008214975060098948 -0.18713423674135513 -0.2274550701491796 -0.33138635588578763
-0.27130870617109537 -0.2413295117622969 -0.17076292958176195 -0.3525519064740139 -0.22058439016631637 0.3764023252308436 0.30599199428397833 0.07083675314183742
0.11199559638422862 0.21947029314095381 0.05005281611261139 0.2795014230234562 0.3216272474428441 0.048219809622841434 -0.08089595525841475 -0.1968069623662631
-0.14608112025931502 -0.1275932331160314 -0.025681634681923984 -0.005488289674252198 -0.001574381694350824 0.0 0.0 -0.00599899478572644
-0.015068823232148478 -0.11852703028672272 -0.15836779853012858 -0.22730791623379398 -0.2094615518588023 -0.15042221900315014 -0.015264981158872107 -0.3552061972535465
0.008581986943308433 0.23354359353588658 0.05157157308413662 -0.07369773568286975 0.4452871250267614 0.3353909020779586 0.2446404221871892 0.3468250365809517
0.3429218960675896 0.038255835180574266 -0.053035675751300713 -0.2206404287256747 -0.19585570894002477 -0.15717862973186497 -0.10113293096236216 -0.03768175386970996
-0.0013419816685700835 0.0 0.0 -0.004765701709750592 -0.019025360273584195 -0.03621810547898459 -0.08487360233198178 -0.1459650098176401
-0.262554626635492 0.019786104005273523 -0.33996388566957614 -0.15283238908757815 0.13700131074186608 -0.12468796179300075 -0.29521064157329135 -0.04297868141591987
0.20404687487260398 0.15792690482156085 0.20009650740381998 0.38269150446411576 0.2795408380245198 0.009772649950968859 0.1654003768035125 0.06219231571215858
-0.054843743050221536 -0.05080508275975304 -0.11346631280251664 -0.012641562746677699 0.0 0.0 -0.0002250988549863399 -0.0016784231861128884
